src/models/and_model.tar (torch, 2144 bytes, 3 tensors)

linear1.weight f4 [4, 2]
-1.1808912 -0.7784586 -1.9722265 -2.1738515 -0.48651487 -0.30510104 -0.6975288 -0.32898661
00000000: 7127 97bf 1049 47bf eb71 fcbf 6220 0bc0
00000010: 7a18 f9be 3436 9cbe 3f91 32bf ef70 a8be

linear1.bias f4 [4]
1.2488171 3.0438857 -1.1091602 0.036881395
00000000: 3dd9 9f3f 06cf 4240 f6f8 8dbf f210 173d

linear2.weight f4 [1, 4]
-2.0334365 -5.043731 0.5087139 -0.75221235
00000000: d323 02c0 3f66 a1c0 133b 023f fd90 40bf
