src/models/or_model.tar (torch, 2136 bytes, 3 tensors)

linear1.weight f4 [4, 2]
0	0x3ff2feed	1.8984047
1	0x3fed22d8	1.8526258
2	0x3f6bb016	0.9206556
3	0x3f61d774	0.8821938
4	0xbfc14248	-1.5098352
5	0xbfca47ae	-1.5803125
6	0xbfac6d19	-1.3470794
7	0xbfa99e88	-1.3251505

linear1.bias f4 [4]
0	0xbf6398d7	-0.8890509
1	0xbed30870	-0.41217375
2	0x3f38ef53	0.7224018
3	0x3f207138	0.6267276

linear2.weight f4 [1, 4]
0	0x404be95f	3.1861188
1	0x3fa4f91b	1.2888521
2	0xc024887d	-2.5708306
3	0xc000335f	-2.0031354
