src/models/xor_model.tar (torch, 2144 bytes, 3 tensors)

linear1.weight f4 [4, 2]
00000000: 14a0 1540 3971 46bf f419 0840 71b0 37c0
00000010: 3018 2cc0 d7e7 36c0 3bb1 903f a7db 943e
2.3378954 -0.77516514 2.126584 -2.8701441 -2.6889763 -2.8579004 1.1304086 0.2907383

linear1.bias f4 [4]
00000000: b331 2abe 6a8a 6ebf 85f6 703f 595d 66bf
-0.16620521 -0.93179953 0.9412616 -0.8998619

linear2.weight f4 [1, 4]
00000000: bfa2 33c0 664d 5d40 99a8 7cc0 1b77 cabf
-2.8068082 3.457849 -3.9477904 -1.5817598
